…
        "id": "jTBg7t9n6Xf7",
        "outputId": "f1bc6e93-c285-46a2-cd41-2f061544a8d0"
      },
      "source": [
        "summary(net, torch.randn(1, 3, 32, 32).to(device)) \n",
        "print('\\n')"
      ],
      "execution_count": null,
      "outputs": [
        {
          "output_type": "stream",
          "text": [
            "==================================================================\n",
            "                Kernel Shape     Output Shape   Params  Mult-Adds\n",
            "Layer                                                            \n",
            "0_conv1        [3, 24, 3, 3]  [1, 24, 32, 32]    672.0   663.552k\n",
            "1_conv2       [24, 24, 3, 3]  [1, 24, 32, 32]   5.208k  5.308416M\n",
            "2_pool                     -  [1, 24, 16, 16]        -          -\n",
            "3_conv3       [24, 32, 3, 3]  [1, 32, 16, 16]   6.944k  1.769472M\n",
            "4_conv4       [32, 32, 3, 3]  [1, 32, 16, 16]   9.248k  2.359296M\n",
            "5_pool                     -    [1, 32, 8, 8]        -          -\n",
            "6_conv5       [32, 48, 3, 3]    [1, 48, 8, 8]  13.872k   884.736k\n",
            "7_conv6       [48, 48, 3, 3]    [1, 48, 8, 8]  20.784k  1.327104M\n",
            "8_pool                     -    [1, 48, 4, 4]        -          -\n",
            "9_dropout5                 -         [1, 768]        -          -\n",
            "10_fc1            [768, 220]         [1, 220]  169.18k    168.96k\n",
            "11_dropout25               -         [1, 220]        -          -\n",
            "12_fc2            [220, 120]         [1, 120]   26.52k      26.4k\n",
            "13_dropout25               -         [1, 120]        -          -\n",
            "14_fc3             [120, 10]          [1, 10]    1.21k       1.2k\n",
            "------------------------------------------------------------------\n",
            "                          Totals\n",
            "Total params            253.638k\n",
            "Trainable params        253.638k\n",
            "Non-trainable params         0.0\n",
            "Mult-Adds             12.509136M\n",
            "==================================================================\n",
…
